…
   - O.L. Mangasarian, W.N. Street and W.H. Wolberg. Breast cancer diagnosis and 
     prognosis via linear programming. Operations Research, 43(4), pages 570-577, 
     July-August 1995.
   - W.H. Wolberg, W.N. Street, and O.L. Mangasarian. Machine learning techniques
     to diagnose breast cancer from fine-needle aspirates. Cancer Letters 77 (1994) 
     163-171.



## MODEL SUMMARY ##
Model: "sequential"
_________________________________________________________________
Layer (type)                 Output Shape              Param #   
=================================================================
conv1d (Conv1D)              (None, 29, 32)            96        
_________________________________________________________________
batch_normalization (BatchNo (None, 29, 32)            128       
_________________________________________________________________
dropout (Dropout)            (None, 29, 32)            0         
_________________________________________________________________
conv1d_1 (Conv1D)            (None, 28, 64)            4160      
_________________________________________________________________
batch_normalization_1 (Batch (None, 28, 64)            256       
_________________________________________________________________
dropout_1 (Dropout)          (None, 28, 64)            0         
_________________________________________________________________
flatten (Flatten)            (None, 1792)              0         
_________________________________________________________________
dense (Dense)                (None, 64)                114752    
_________________________________________________________________
dropout_2 (Dropout)          (None, 64)                0         
_________________________________________________________________
dense_1 (Dense)              (None, 1)                 65        
=================================================================
Total params: 119,457
Trainable params: 119,265
Non-trainable params: 192

## BUILDING MODEL BY RUNNING 50 EPOCHS WITH 15 STEPS EACH ##
Epoch 1/50
15/15 [==============================] - 6s 143ms/step - loss: 1.0901 - accuracy: 0.5448 - val_loss: 0.6682 - val_accuracy: 0.6930
Epoch 2/50
15/15 [==============================] - 0s 13ms/step - loss: 0.7488 - accuracy: 0.6824 - val_loss: 0.6148 - val_accuracy: 0.7193
…
