## MODEL SUMMARY ##
Model: "sequential"
_________________________________________________________________
Layer (type)                 Output Shape              Param #   
=================================================================
conv2d (Conv2D)              (None, 222, 222, 32)      896       
_________________________________________________________________
max_pooling2d (MaxPooling2D) (None, 111, 111, 32)      0         
_________________________________________________________________
dropout (Dropout)            (None, 111, 111, 32)      0         
_________________________________________________________________
conv2d_1 (Conv2D)            (None, 109, 109, 64)      18496     
_________________________________________________________________
max_pooling2d_1 (MaxPooling2 (None, 54, 54, 64)        0         
_________________________________________________________________
conv2d_2 (Conv2D)            (None, 52, 52, 64)        36928     
_________________________________________________________________
max_pooling2d_2 (MaxPooling2 (None, 26, 26, 64)        0         
_________________________________________________________________
dropout_1 (Dropout)          (None, 26, 26, 64)        0         
_________________________________________________________________
conv2d_3 (Conv2D)            (None, 24, 24, 128)       73856     
_________________________________________________________________
max_pooling2d_3 (MaxPooling2 (None, 12, 12, 128)       0         
_________________________________________________________________
conv2d_4 (Conv2D)            (None, 10, 10, 128)       147584    
_________________________________________________________________
max_pooling2d_4 (MaxPooling2 (None, 5, 5, 128)         0         
_________________________________________________________________
conv2d_5 (Conv2D)            (None, 3, 3, 128)         147584    
_________________________________________________________________
max_pooling2d_5 (MaxPooling2 (None, 1, 1, 128)         0         
_________________________________________________________________
flatten (Flatten)            (None, 128)               0         
_________________________________________________________________
dense (Dense)                (None, 256)               33024     
_________________________________________________________________
activation (Activation)      (None, 256)               0         
_________________________________________________________________
dropout_2 (Dropout)          (None, 256)               0         
_________________________________________________________________
dense_1 (Dense)              (None, 1)                 257       
_________________________________________________________________
activation_1 (Activation)    (None, 1)                 0         
=================================================================
Total params: 458,625
Trainable params: 458,625
Non-trainable params: 0
_________________________________________________________________




## BUILDING MODEL BY RUNNING 100 EPOCHS WITH 25 STEPS IN EACH ##
Epoch 1/100
25/25 [==============================] - 55s 2s/step - loss: 0.7028 - accuracy: 0.4583 - val_loss: 0.6699 - val_accuracy: 0.5833
…
